libraries/SilabsTFLiteMicro/examples/magic_wand/train/gesture_model.tflite (tflite, 35528 bytes, 3 tensors)

tfl.pseudo_qconst1 i1 [4, 15]
00000000: 2311 f7e9 fcf3 070e 81d2 a11a 08f4 1991
00000010: cdd8 27dd a87f f6f7 e227 c012 35d3 0dda
00000020: 0ce3 d3fc 81f2 fa9a f224 0731 e5c7 08ff
00000030: f2d6 4ee7 1049 7fe3 0913 ded9
35 17 -9 -23 -4 -13 7 14
-127 -46 -95 26 8 -12 25 -111
-51 -40 39 -35 -88 127 -10 -9
-30 39 -64 18 53 -45 13 -38
12 -29 -45 -4 -127 -14 -6 -102
-14 36 7 49 -27 -57 8 -1
-14 -42 78 -25 16 73 127 -29
9 19 -34 -39

tfl.pseudo_qconst3 i1 [15, 50]
00000000: fe1c 0d26 01f1 1bf5 6d13 11f1 e519 06f2
00000010: fef5 ee21 1edf 1a12 fae2 251d daaf e1fe
00000020: dc81 0af8 db30 9cf6 46f8 ec42 0550 10f6
00000030: 2609 4c8d b783 ffd7 2daa c030 162c 6b34
00000040: d3c8 cba6 af4b 925a e2cb 5ae5 794a 04ae
00000050: 8d59 a981 eb46 3512 f42d 2e65 bfde 59c9
00000060: ae9c 31a2 a703 bf43 5cc2 b963 64fb b4dd
00000070: d8ef 19ea 8193 3de9 c4a9 c611 471e e44f
00000080: 06e1 4455 2c4c 6c02 0150 2a53 dd1d 50f7
00000090: ee3a e436 944f 6286 4dc3 45d3 90ff 14e9
000000a0: 86f7 9845 1496 9aa3 ad02 d7b9 097f 32a1
000000b0: 6afe 9de6 132a defe 9323 a32b a924 bd4c
000000c0: b7d9 7123 96d3 851e 3907 c0a7 f47f af01
000000d0: 9807 9aaa fb5a 39b4 deb7 c22a 1f8e 4faa
000000e0: 440d 84d8 fba7 4dd5 d78d 71e2 696e 2738
000000f0: 714e 72a5 6edc 8986 8724 edef 31c8 153a
-2 28 13 38 1 -15 27 -11
109 19 17 -15 -27 25 6 -14
-2 -11 -18 33 30 -33 26 18
-6 -30 37 29 -38 -81 -31 -2
-36 -127 10 -8 -37 48 -100 -10
70 -8 -20 66 5 80 16 -10
38 9 76 -115 -73 -125 -1 -41
45 -86 -64 48 22 44 107 52
-45 -56 -53 -90 -81 75 -110 90
-30 -53 90 -27 121 74 4 -82
-115 89 -87 -127 -21 70 53 18
-12 45 46 101 -65 -34 89 -55
-82 -100 49 -94 -89 3 -65 67
92 -62 -71 99 100 -5 -76 -35
-40 -17 25 -22 -127 -109 61 -23
-60 -87 -58 17 71 30 -28 79
6 -31 68 85 44 76 108 2
1 80 42 83 -35 29 80 -9
-18 58 -28 54 -108 79 98 -122
77 -61 69 -45 -112 -1 20 -23
-122 -9 -104 69 20 -106 -102 -93
-83 2 -41 -71 9 127 50 -95
106 -2 -99 -26 19 42 -34 -2
-109 35 -93 43 -87 36 -67 76
-73 -39 113 35 -106 -45 -123 30
57 7 -64 -89 -12 127 -81 1
-104 7 -102 -86 -5 90 57 -76
-34 -73 -62 42 31 -114 79 -86
68 13 -124 -40 -5 -89 77 -43
-41 -115 113 -30 105 110 39 56
113 78 114 -91 110 -36 -119 -122
-121 36 -19 -17 49 -56 21 58

tfl.pseudo_qconst5 i1 [50, 600]
00000000: f82e 99b4 6207 a2a6 cb12 4755 f6cd de82
00000010: 3d33 e8cd 43cc fa2c c2fa 5c5c c088 78f4
00000020: 3e3d a6b1 5fcb 5417 a847 4e8a 8a6a be48
00000030: b551 56f7 63c9 21be ce36 137e 5806 1ba8
00000040: 241d 365a 0e78 0389 b28e a3c6 ee52 cced
00000050: 8e38 fbca 9df0 c770 e911 b5dc 5cef 9b04
00000060: 0ef5 3ff1 1d04 ac7c 3cae bc86 acee d554
00000070: c948 bfa2 b3d4 6959 629f 0174 1da6 fde0
00000080: 7b01 f37e 057b 3d3c 52bd a923 cfd3 a5d2
00000090: e22f 6465 486e 7b02 4584 7216 d1c3 a667
000000a0: a4eb ac09 7c9e 3fa2 a96a 5a25 4eb1 b996
000000b0: eed9 ac45 de01 aa0a 18c6 33ac 9bb6 87cb
000000c0: d4fc 5491 94f9 47fe b740 db91 1bf4 b713
000000d0: fda1 c4b3 e76f 7b1c 95c7 fbe0 4d12 5aa1
000000e0: 5188 584f 11dd 421b 121b 5b8f 885f 4383
000000f0: d52e b98c 1369 e576 87fe e8e6 dbba e0ca
-8 46 -103 -76 98 7 -94 -90
-53 18 71 85 -10 -51 -34 -126
61 51 -24 -51 67 -52 -6 44
-62 -6 92 92 -64 -120 120 -12
62 61 -90 -79 95 -53 84 23
-88 71 78 -118 -118 106 -66 72
-75 81 86 -9 99 -55 33 -66
-50 54 19 126 88 6 27 -88
36 29 54 90 14 120 3 -119
-78 -114 -93 -58 -18 82 -52 -19
-114 56 -5 -54 -99 -16 -57 112
-23 17 -75 -36 92 -17 -101 4
14 -11 63 -15 29 4 -84 124
60 -82 -68 -122 -84 -18 -43 84
-55 72 -65 -94 -77 -44 105 89
98 -97 1 116 29 -90 -3 -32
123 1 -13 126 5 123 61 60
82 -67 -87 35 -49 -45 -91 -46
-30 47 100 101 72 110 123 2
69 -124 114 22 -47 -61 -90 103
-92 -21 -84 9 124 -98 63 -94
-87 106 90 37 78 -79 -71 -106
-18 -39 -84 69 -34 1 -86 10
24 -58 51 -84 -101 -74 -121 -53
-44 -4 84 -111 -108 -7 71 -2
-73 64 -37 -111 27 -12 -73 19
-3 -95 -60 -77 -25 111 123 28
-107 -57 -5 -32 77 18 90 -95
81 -120 88 79 17 -35 66 27
18 27 91 -113 -120 95 67 -125
-43 46 -71 -116 19 105 -27 118
-121 -2 -24 -26 -37 -70 -32 -54
